2024-09-13/ONNX/simple_model.onnx (onnx, 449 bytes, 2 tensors)

fc.weight f4 [5, 10]
0	0xbe23cc05	-0.15995796
1	0x3ea098bd	0.3136653
2	0xbe6ad3c7	-0.22932349
3	0xbda6b67a	-0.081402734
4	0xbd992526	-0.074777886
5	0x3dd8a19c	0.105776995
6	0x3d6ef090	0.058334887
7	0xbe673640	-0.22579288
8	0xbe3de681	-0.18544962
9	0xbe58179e	-0.21102759
10	0x3d27a568	0.040929228
11	0xbe886e8a	-0.26646835
12	0x3ea0129b	0.31264195
13	0x3e882e61	0.26597884
14	0xbd496f40	-0.049178362
15	0x3d054858	0.032539696
16	0xba541400	-0.00080901384
17	0xbe431204	-0.19049841
18	0xbe8d849b	-0.27640232
19	0x3e7cdbae	0.24693176
20	0x3d63acd8	0.05558476
21	0xbe2699ef	-0.16269659
22	0x3ce98990	0.028507978
23	0xbe9aedd6	-0.3025958
24	0xbcecb5f0	-0.028895348
25	0xbe848d1f	-0.25888917
26	0x3dc46078	0.095887125
27	0x3e6381ce	0.22217485
28	0xbe43f7ce	-0.19137499
29	0xbe91d3c0	-0.28481865
30	0x3d047cc8	0.032345563
31	0x3e2e2818	0.17007482
32	0xbe57eda4	-0.21086746
33	0xbd9a3f94	-0.07531658
34	0xbe9a2268	-0.30104375
35	0x3e768b0a	0.24076477
36	0x3df71d54	0.12066141
37	0xbc27d020	-0.010242492
38	0xbe26099b	-0.16214602
39	0xbe6b83c4	-0.22999483
40	0x3dfe91e4	0.1243017
41	0xbe781e4c	-0.24230307
42	0x3e7a6076	0.2445086
43	0xbe358727	-0.17727338
44	0x3d621680	0.05519724
45	0x3b8e3f00	0.0043410063
46	0x3e967fc1	0.29394343
47	0x3e89609f	0.2683153
48	0x3df2ccec	0.11855492
49	0x3e092c62	0.13395837

fc.bias f4 [5]
0	0x3d5243e8	0.05133429
1	0x3e9bfdc1	0.30467036
2	0xbe5ff25a	-0.21869794
3	0x3e8d554d	0.27604142
4	0xbe658e6c	-0.22417611
